CAP5610-ML-Summer2020/Study/conv2_layer_28x28.pt (torch_old, 101159 bytes, 8 tensors)

weight f4 [10, 1, 5, 5]
000000 bd ff e3 bd f6 bd 5c bd fa d6 03 be 19 b4 8a bc
       -0.111327626 -0.0538921 -0.12874976 -0.01693158
000010 66 2c ce 3d ef 88 3b 3d dd 0e 7a 3e 68 9e 8c 3e
       0.10067062 0.045784887 0.24419732 0.27464604
000020 0a 06 a9 3e 94 88 b5 3e 2f 5a eb 3d 4f 28 27 be
       0.3301242 0.35455763 0.114918105 -0.1632397
000030 92 4d 9a bc 58 78 29 3e b7 2e 52 3e 97 0e 2d 3e
       -0.018835817 0.16549814 0.20525633 0.16900097
000040 fd 45 4e bc 87 62 51 3d 74 e6 8a 3e ac ad 19 3e
       -0.012589929 0.051119354 0.27128947 0.15007657
000050 82 9e 76 bd 65 1e e4 3d d3 73 f3 3d 55 a6 89 3a
       -0.06020976 0.1113861 0.11887326 0.0010501841
000060 df e0 4f 3e 2d 61 c3 3d cc da ea 3d 53 57 12 3e
       0.20300625 0.09540019 0.114675134 0.14291124
000070 37 30 2b 3e a2 90 f7 39 82 eb 8e 3e 48 4b 79 3d
       0.16717611 0.0004721927 0.27914053 0.06086281
000080 35 32 34 3e 08 99 33 3e 73 2e 19 3e a8 cd 00 be
       0.17597277 0.17538846 0.14959125 -0.12578452
000090 5a 05 8b bd c3 3d d6 3d 79 4f f3 3c ef 10 c3 bc
       -0.0678813 0.10460999 0.029700981 -0.023811786
0000a0 1f 7d 8d bd 4a 4d 9f bd ac b0 f7 bc 74 15 90 bc
       -0.069086306 -0.077784136 -0.03023561 -0.017588355
0000b0 d2 7e 29 3e 33 d8 55 be 93 97 a6 be 3e ae 85 be
       0.16552284 -0.20883255 -0.32537517 -0.261095
0000c0 64 84 99 be 7e ad 60 be 25 d0 aa bd 52 de 6a bc
       -0.2998382 -0.21941182 -0.08340482 -0.014335232
0000d0 01 41 87 be 52 e3 43 be 64 f7 67 3e 3a cb 9d be
       -0.26416782 -0.19129685 0.22652966 -0.30819112
0000e0 c8 88 7a be 1d 83 71 be 8a d0 c6 bd cf c1 6b 3e
       -0.2446624 -0.23585172 -0.097077444 0.23023151
0000f0 24 af 95 be d2 4a bd be 64 c9 9f be ad 02 4a 3e
       -0.29235184 -0.36971146 -0.31208336 0.19727583
000100 af 51 7b 3d 95 25 a6 bd 69 95 d8 bd 50 b2 ca bb
       0.061357196 -0.08112637 -0.10575373 -0.0061858073
000110 71 ca 1f 3e 8b 5e 4f 3e 7b 57 02 3e 8a 78 d1 3e
       0.15604569 0.20250909 0.12728684 0.40912277
000120 88 bd e8 3e e7 46 88 3e 9f c8 a3 3d 72 0e 8f be
       0.454571 0.26616594 0.0799725 -0.27940708
000130 ba 1c 1c be 6b 2e 5e be ad 4d c6 bc a7 47 69 3d
       -0.15245333 -0.21697395 -0.02420696 0.0569531
000140 a7 68 5f be 5d 36 86 be 79 bd 91 bd 3b ca 72 3e
       -0.21817265 -0.2621335 -0.07116217 0.23709957
000150 3b 00 28 3e 9d f5 69 3e 3d 96 f8 3d cc b8 37 3e
       0.16406338 0.228476 0.12138031 0.17941588
000160 bf 62 2a bc 17 4c 26 3d ea d6 8d 3e d7 b3 f0 3c
       -0.0103995195 0.04059991 0.2770303 0.02938263
000170 70 2f de 3d e5 36 9a 3e 2a d7 83 3e 85 58 81 3e
       0.10848892 0.30120006 0.25750095 0.25262848
000180 3d 8e 34 3e fc ec 72 3c 5c 77 b7 3e 89 9f 05 3e
       0.17632385 0.014827009 0.3583325 0.13049139
000190 00 22 1f 3e 04 5d b1 3e be 68 b5 3e 3a 08 e9 3d
       0.15540314 0.34641278 0.35431474 0.11378522
0001a0 bf 28 6f 3e 22 49 5d 3e 2b fd 28 3e bf 90 ba 3d
       0.23355387 0.21609929 0.16502826 0.091096394
0001b0 95 5e 86 3e 7b 26 17 3e a2 aa 81 bd 90 20 54 bd
       0.26244035 0.14760773 -0.06331374 -0.051788867
0001c0 3b 45 fd 3d e6 87 b2 3d 34 a0 74 bd b5 67 5c be
       0.1236672 0.08717327 -0.059723094 -0.21523936
0001d0 21 ad 98 be d5 ea 7d be 95 88 03 be 49 73 c7 bd
       -0.29819587 -0.24796613 -0.1284507 -0.09738786
0001e0 1c a3 3f be 47 51 a9 bd df c0 b0 be c6 22 a5 be
       -0.18714565 -0.082674555 -0.3452215 -0.32253093
0001f0 8e f4 a3 be 16 42 3c 3e b5 4b 9b 3e d2 12 ae 3d
       -0.32022518 0.18384585 0.30331197 0.084996834
000200 0f ab 1d be 15 0c 3c be 8d ac 9b 3e 9d bd 0c 3e
       -0.15397285 -0.18363984 0.30405083 0.13744207
000210 72 ba 89 bd 10 27 9a bb 9d e5 9b be 20 72 31 3e
       -0.06725015 -0.0047043636 -0.3044862 0.17328691
000220 e4 0a 8f 3a 2c db cc 3d f2 eb bb bd 5d bd a9 be
       0.001091328 0.10002741 -0.09175862 -0.33152285
000230 36 07 46 3e 6f 6e b6 3d d8 25 fc 3d 3a a4 23 be
       0.19338688 0.08907782 0.123119056 -0.15980616
000240 51 46 aa be c9 a5 8f 3e c3 8b c9 3d 15 69 2a bd
       -0.33256772 0.28056172 0.098411106 -0.04160412
000250 1f 56 5c be dc 27 c4 be db 63 3f 3e 80 4e 9c 3e
       -0.21517228 -0.3831166 0.18690436 0.3052864
000260 71 7e 85 3e 40 1e d9 3d 66 44 66 3e 7b 96 ab bd
       0.2607303 0.10601473 0.2248703 -0.08378311
000270 e3 c2 20 3e cb bc e5 bc 53 6e 53 3e 60 e8 84 3e
       0.15699343 -0.028044125 0.20647554 0.25958538
000280 89 c7 b1 bc 3e cf b3 3d ec 97 55 3b f2 a8 9d 3e
       -0.021701591 0.08779763 0.0032591773 0.30792958
000290 cd bb a0 3e 8d a9 0c be 22 06 3b 3e 12 37 09 3e
       0.3139328 -0.13736553 0.18264058 0.13399914
0002a0 2c 6c 93 3e aa bd 21 3e 70 9a 8c 3e 86 34 3d 3c
       0.28793466 0.15795007 0.27461576 0.011548167
0002b0 6d 1c 0b 3e 2e a5 c8 3a 57 e5 94 3e cc ca ee 3c
       0.13585062 0.0015308016 0.29081222 0.029149435
0002c0 6d a3 49 3d 15 9a 82 3d 4f 6f c0 3d 14 88 0b bd
       0.04922812 0.06377045 0.093962304 -0.03406532
0002d0 ec dd 33 be d9 d2 df 3d 98 40 ae b9 28 8a d8 3d
       -0.17565125 0.10928888 -0.00033235992 0.10573226
0002e0 d4 25 52 3e ba 39 3c bd a7 6e b2 3c bd ab 4a 3e
       0.20522243 -0.04595349 0.021781279 0.19792075
0002f0 ae 74 8e 3e e1 d7 3c 3e e9 0e 5c 3d e2 75 64 3e
       0.27823395 0.18441726 0.053725157 0.22310594
000300 80 bf b7 bd e3 32 48 3e a5 73 93 3d 9d f5 6c 3d
       -0.089720726 0.19550662 0.07199792 0.057851423
000310 6a 26 8e 3e 52 14 8f 3e 4d ed c5 3e d8 88 47 3e
       0.27763683 0.2794519 0.3865761 0.19485795
000320 74 e2 d9 bd 02 e8 84 3e 4c 31 75 3d e3 b9 4a bd
       -0.10638896 0.25958258 0.059861466 -0.04949368
000330 08 9c 68 3e f3 62 89 3e 76 20 8b 38 5c ee 47 3e
       0.22715771 0.26833305 6.634083e-05 0.1952452
000340 72 cc 21 bd ea ca d4 bd 72 1b 50 3e 4e 62 97 3e
       -0.039501615 -0.10390265 0.2032297 0.29567188
000350 95 ff 14 be b7 aa e7 bd e1 3e 5b 3d b9 c3 85 3e
       -0.14550622 -0.11311858 0.053526763 0.26125887
000360 90 0a c7 3d cf 51 03 bd 1e 6a 6e be 23 c6 6f be
       0.097188115 -0.03206044 -0.23282668 -0.23415427
000370 75 75 a2 3d 32 72 34 be c6 1d 5f be 2d ea 85 be
       0.079325594 -0.17621687 -0.21788701 -0.26155224
000380 bd c2 6e be 54 51 81 3e ef 80 8b 3e 84 f5 b0 bd
       -0.23316474 0.2525736 0.27246806 -0.086405784
000390 90 72 34 3e d8 5c 9b 3d f6 eb 1f bd 26 01 87 bd
       0.17621827 0.07586068 -0.03904339 -0.06592016
0003a0 bf 9e 0e 3e 03 b4 7c 3e c1 cb b7 bd 49 e2 6e 3e
       0.13927744 0.24678044 -0.0897441 0.23328508
0003b0 cd 23 68 3e 84 1c 81 3d d5 38 bc 3d ea e2 de 3d
       0.22669907 0.06304267 0.09190527 0.10883124
0003c0 cd ef 2e 3e 5f 72 d4 39 cc 3c 06 be 91 e0 9e bd
       0.17083664 0.00040521004 -0.1310913 -0.077576764
0003d0 75 9b ab 3d 9d d2 6c be c3 d6 9c be ab 44 0b bd
       0.083792605 -0.23127218 -0.306326 -0.034001034
0003e0 7f 08 43 be 1f b9 8e be
       -0.1904621 -0.2787561

bias f4 [10]
000000 4e 5b f7 3c 3e 53 1f 3d 1a 44 0b 3e 22 0f 3e 3b
       0.030194905 0.038897745 0.13600197 0.002900072
000010 95 31 d2 3d 96 f6 2b 3e b4 c0 e5 3a e7 28 fb 3d
       0.10263363 0.16793284 0.0017528743 0.12263661
000020 b6 6c 30 bb 5c c4 08 bd
       -0.0026920266 -0.033390388

weight f4 [20, 10, 5, 5]
000000 d5 bf 4b bd 02 03 84 bb 4a 8d 23 bd 36 f7 69 3a
       -0.049743492 -0.004028679 -0.039929666 0.0008925082
000010 35 15 4f bc b7 67 80 3c 88 aa 24 bd 62 7c ef ba
       -0.0126393335 0.015674455 -0.040201694 -0.0018271322
000020 e6 f0 dc bc 49 4e 9d bd 5e 98 18 bc 6b eb ad bd
       -0.026970338 -0.07680947 -0.009313671 -0.08492168
000030 c9 98 af bd 4f e0 b6 bd b3 2c eb bd bc 77 a9 3c
       -0.08574063 -0.08929502 -0.11483135 0.020686977
000040 a9 92 1c bd eb c2 72 bd 8d 52 82 bd 87 2f f8 bd
       -0.038225804 -0.05926792 -0.063634016 -0.1211844
000050 bc 56 93 3d fb 7b 16 3c 7a 02 f3 3c e7 3d 26 3e
       0.07194278 0.009184833 0.029664267 0.16234551
000060 00 01 2e 3e df a7 29 bd df ac 1a bd 57 84 3e bc
       0.16992569 -0.04141986 -0.03776252 -0.011628232
000070 90 1f 07 3c b9 fc f0 3b 66 8f 8a 3d ba 64 57 3b
       0.008247271 0.0073543456 0.06765632 0.0032866434
000080 34 00 8b 3d 19 ea aa 3d 0e 20 f2 3d e7 d0 91 3d
       0.06787148 0.08345432 0.1182252 0.07119923
000090 69 ed 41 3d 88 44 be 3d fd 64 84 3d 83 55 c0 3d
       0.047345553 0.09290415 0.064645745 0.0939131
0000a0 5e f0 d8 3c 52 73 6b bd d8 48 1c bd 00 2d ce 3c
       0.026481804 -0.057483025 -0.038155407 0.025167942
0000b0 4a 3b 66 3b 47 8d 80 be 29 cd 09 be f4 b2 18 bd
       0.0035130554 -0.25107786 -0.13457169 -0.037280038
0000c0 4a 79 c2 bb 90 31 1b be ad ce 41 bc 1b c5 c2 3c
       -0.005934869 -0.15155625 -0.0118290605 0.023775628
0000d0 06 a1 a3 bd 81 63 ad 3c c8 79 48 bd 2c 02 84 3d
       -0.07989697 0.021165611 -0.048944265 0.06445727
0000e0 42 e1 de bb ac a6 f8 bb ac aa 48 bc af f6 d4 bd
       -0.006801755 -0.007588228 -0.012247723 -0.10398614
0000f0 fc 55 8e 3d ff e4 1c 3d d5 8c eb 3d 90 fe 14 3e
       0.06949994 0.038304325 0.11501471 0.14550233
000100 5f ba 09 3d 12 79 da 3d 47 58 cf 3d 93 bf ff 3d
       0.033625003 0.106676236 0.101242594 0.12487712
000110 d8 59 46 3d 03 7a 4e 3c 6b b9 78 3e 77 05 f3 3d
       0.048425525 0.012602332 0.24289481 0.11866277
000120 74 4f 28 3e 41 4b 51 3e 46 90 f0 3d 58 39 8c 3c
       0.16436559 0.20438863 0.11746268 0.017117187
000130 02 c7 a9 bd 09 39 40 bd 07 5d 88 bd ea 16 18 be
       -0.08289911 -0.046929393 -0.066583686 -0.14852491
000140 5e 5c b3 bd c8 1c 9a bd 8a 8c f5 bc 09 23 c7 bd
       -0.08757852 -0.07525021 -0.02997424 -0.09723479
000150 7a bb 83 be 49 21 d4 bd 18 11 b5 bd 9a db d9 bd
       -0.2572897 -0.10357911 -0.08841151 -0.10637589
000160 89 db 95 bd 53 da 2a be 3e 03 ac 3c 64 b6 ad b9
       -0.07317264 -0.16684847 0.02099764 -0.00033133023
000170 53 26 23 bd 55 36 70 3d 34 c5 19 3d cd 7d 56 3e
       -0.03983147 0.058645565 0.037541583 0.20946427
000180 9d 21 53 3e 60 1f 20 3e c7 ec 32 3e c2 c9 4c 3e
       0.20618291 0.15636969 0.17473136 0.1999884
000190 e0 c2 13 3d 55 c1 5a 3c cd fb 94 bd 24 45 14 3c
       0.03607452 0.013351758 -0.0727459 0.009049688
0001a0 5b 14 22 3d 55 43 8b 3d 70 d1 1e 3d 51 b3 ac 3d
       0.039570194 0.06799952 0.038773954 0.084326394
0001b0 dc 7c c8 3d db 22 94 3d 5d 6d e9 3c cb 15 d3 3d
       0.0978944 0.07233211 0.028494531 0.10306891
0001c0 63 c3 ea 3d 73 3c 41 3e 24 f2 8c 3e 82 f0 d3 3b
       0.11463048 0.18870716 0.2752849 0.0064678797
0001d0 f2 6d d3 3d 0f af 3e 3d 43 2a 42 3d b9 b4 55 3d
       0.10323705 0.046553668 0.047403585 0.052174304
0001e0 0f 7d 6d be fb e8 e3 bd 30 ba 57 bc 45 41 18 be
       -0.23192237 -0.11128422 -0.013166949 -0.14868648
0001f0 5a e7 59 be 5d e5 af bd de 11 8a 3b 2c 36 22 3d
       -0.2127966 -0.085886694 0.0042135557 0.039602444
000200 42 80 f4 3c 4f 87 5a 3d cf 88 e3 bd e8 db bb 3c
       0.029846314 0.053351697 -0.111100785 0.022932008
000210 8f 55 28 3d 74 3c 74 3d bf db d4 3d 68 72 ce bd
       0.04109722 0.059627965 0.10393476 -0.10080415
000220 b8 1d 1b bd 74 4a 9b bd c6 51 66 3c 46 23 1d 3d
       -0.03787014 -0.0758256 0.014057582 0.038363717
000230 36 b4 6f bd cf b0 4e bd 08 28 d9 bd 56 ad 98 bd
       -0.058521472 -0.050461587 -0.106033385 -0.07454936
000240 e7 85 4c 3d e0 33 d6 bd 9b f7 d5 bd 70 53 0c be
       0.049932387 -0.10459113 -0.104476176 -0.13703704
000250 db 20 ae bd a6 d8 2e bc 41 0e 60 bc 15 d6 0b 3d
       -0.085023604 -0.01067177 -0.013675273 0.03413971
000260 10 b4 f2 3c c2 bd 12 3c 5c 9f 33 bd 0f 15 11 3d
       0.029626876 0.008956375 -0.04385315 0.035420474
000270 0a c0 d0 bb 8f 20 3c 3d 41 cb b4 bd 96 9c 0d be
       -0.006370549 0.045929488 -0.0882783 -0.13829264
000280 28 c5 ae bc 56 de e8 bb e9 52 e2 3c e0 3a dc bd
       -0.021334246 -0.0071065826 0.027627425 -0.10753417
000290 ed b0 71 be da 0b 73 bd ec f7 9a bd 75 40 c0 bc
       -0.23602648 -0.059337474 -0.075668186 -0.023468236
0002a0 3d dc a4 bd b8 9c 1b be e2 b8 99 3c a6 11 ef 3d
       -0.080498196 -0.15196502 0.018764917 0.11673288
0002b0 60 49 a2 3d 74 79 6a 3d 99 f3 e0 3d 2d d5 aa bb
       0.079241514 0.057244733 0.109839626 -0.005213401
0002c0 10 16 31 3c 26 57 2a 3d cc eb 88 bd 52 e8 51 bd
       0.010808483 0.041587017 -0.066856 -0.05124695
0002d0 53 3d 19 bd a0 e7 06 3d d9 f8 1a 3d cd 55 66 bb
       -0.037412 0.03293574 0.037834976 -0.0035146356
0002e0 05 e7 23 be 87 d7 92 bd dd 7e b6 3c 3d d0 1e bb
       -0.16006096 -0.07170015 0.02227729 -0.0024233006
0002f0 96 64 1b bc 80 8f 01 be fc cb 3d 3d 4c c1 cf bb
       -0.009484431 -0.12652397 0.046337113 -0.0063401815
000300 a4 57 5b 3d a7 bf 28 3d 8c 3f 42 3d 1d c9 04 3e
       0.053550377 0.0411984 0.047423884 0.12967344
000310 ce 5a 97 3d 42 b3 e6 3d 73 36 25 3e ce fd 58 3e
       0.073903665 0.112646595 0.16134052 0.21190569
000320 82 6f 98 bd 16 ea dd bb 33 14 33 3d bc b1 39 3b
       -0.074431434 -0.00677229 0.043720435 0.0028334698
000330 50 bd c0 3d 85 3a c8 bd db ff 58 bd 3b 11 ea bc
       0.094111085 -0.09776787 -0.052978378 -0.02857267
000340 d8 5c ac 3d e3 cb 04 3e 1f 53 f6 bc dc 36 82 bc
       0.08416146 0.12968402 -0.030068932 -0.0158953
000350 a1 aa 6a bc d5 b7 52 3d d0 0d 08 3e 14 ef 01 3d
       -0.014322908 0.051444847 0.13286519 0.031722143
000360 0e 01 b0 bd 8f 36 d8 bd ef 3f f2 bc 7d 4b bc bc
       -0.08593951 -0.10557281 -0.029571502 -0.022985214
000370 1e a4 1b be 29 2a c9 bb 56 04 07 be 6f e0 2e be
       -0.15199324 -0.006139059 -0.13185248 -0.17077802
000380 c6 a8 fc bd 28 ce ab 3a 50 93 e9 3c 9a 2d b7 3c
       -0.123368785 0.0013107704 0.028512627 0.022360612
000390 19 9c d3 3c 01 97 66 3d 68 a5 6b bd b6 4b 6b 3c
       0.02583127 0.056296352 -0.05753079 0.014361313
0003a0 30 dc eb ba 1d 8b 88 3d a9 1b c3 3d b9 6a b0 bd
       -0.0017994698 0.06667159 0.0952676 -0.08614106
0003b0 77 fb 0e bd 1e a8 b7 3c 0a d6 13 bd d4 06 b0 3c
       -0.034907784 0.022419032 -0.036092795 0.02148763
0003c0 45 c6 20 be 9a 89 a6 bd 13 1d 9d bd c6 a9 e5 bd
       -0.15700634 -0.08131714 -0.07671561 -0.11214022
0003d0 61 6f d1 bd 68 4b fd bd c5 aa 1f bd e1 d7 df 3c
       -0.10226322 -0.12367898 -0.038981218 0.027324619
0003e0 7a 97 73 3a 8c 51 66 bd 64 df 72 bd 14 36 8f bd
       0.0009292286 -0.056230113 -0.059295073 -0.069927365
0003f0 8e 1e 47 bd a5 12 00 3d 34 7d 94 3d 16 d5 5c bd
       -0.048613124 0.03126778 0.07250443 -0.053914152

bias f4 [20]
000000 03 17 99 3c 6c 73 9e 3d 0c 8f 11 be 41 52 7d 3d
       0.01868773 0.07736859 -0.14214724 0.06184602
000010 d8 de 17 bd b9 55 a4 3c 19 42 3c bc 63 60 2d 3d
       -0.037077755 0.020060407 -0.011490368 0.04232825
000020 46 1e 5d bd bc 53 79 3d 26 f3 6c bd 4d 3c 1e bd
       -0.05398395 0.06087087 -0.057849072 -0.038631726
000030 60 03 86 3c ba be 17 be 3c 1d 1a be f8 76 9a 3d
       0.016359031 -0.1481885 -0.15050215 0.07542223
000040 93 73 d8 bc 77 96 33 bd 50 a7 72 3c 12 f2 cf bc
       -0.026422298 -0.043844666 0.014810398 -0.025383983

weight f4 [50, 320]
000000 e0 48 39 bb 5c f6 54 bd ae a8 8e 3d 64 36 1b 3d
       -0.0028272197 -0.05199276 0.06965767 0.037893668
000010 1f cf 4d 3d f8 15 74 3c bb 18 29 3d b4 a5 02 bd
       0.050246354 0.014897816 0.04128335 -0.031896308
000020 af 9b a6 bc a7 38 84 bc 56 1d 3f 3d 02 81 04 3e
       -0.020337908 -0.016140295 0.046658836 0.12939838
000030 15 e7 91 bd 77 77 01 be 59 e6 51 bd b6 6e 8a 3e
       -0.071241535 -0.12643228 -0.051245067 0.2703759
000040 88 6d db 3c 47 2b 56 bc 40 68 92 3c 9e 50 0d 3d
       0.026785627 -0.013071842 0.017871976 0.03450071
000050 cb c9 34 3d 9f c2 8a bd 33 59 64 3d 60 0a 29 bc
       0.044137757 -0.06775402 0.05574913 -0.010317415
000060 b8 19 a7 3b e1 6a 02 be a2 78 c5 3c 08 37 83 bd
       0.0050995015 -0.12736084 0.024105374 -0.06406981
000070 a7 8f 06 bd 9b 69 85 bc b0 88 38 3d 4c 9b 89 3c
       -0.03285184 -0.016285708 0.04505223 0.016797684
000080 d6 39 ae 3b 3a 81 c3 bc 52 07 b9 bc 46 ed f9 bd
       0.005316953 -0.023865331 -0.022586498 -0.122034594
000090 9f 1a 1b 3d cc fe 3a 3c af a0 54 bd aa 18 ac bc
       0.037867185 0.011413287 -0.051911052 -0.021007854
0000a0 4a f4 bd 3d 4e 91 ff 3c 33 ed 34 bd cf cf 8c 3d
       0.0927511 0.031197216 -0.044171523 0.06875574
0000b0 ef 74 95 3d d4 91 17 3d 6a 47 77 bd 0d 6c 1a be
       0.07297694 0.037004307 -0.06037084 -0.1508028
0000c0 02 8b 18 3d e6 05 42 bd 3a 70 8c 3d 9e da 8e 3c
       0.037241943 -0.047368906 0.06857343 0.01743823
0000d0 15 e5 81 3b 35 62 b1 bc a2 f5 8c bc 2f 75 21 3e
       0.0039640763 -0.021653274 -0.01720697 0.15767358
0000e0 41 bd 3a bd af da a4 bd 69 77 c2 3c 0e 12 f3 bd
       -0.045590643 -0.08049523 0.02373858 -0.11868678
0000f0 66 ab 19 be ca 08 f1 3d df 56 b7 3d c0 2c 6b bd
       -0.1500679 0.117692545 0.08952116 -0.057415724
000100 25 e9 54 3d a9 11 0a 3d d3 7c a1 3c 79 23 14 3a
       0.051980156 0.03370825 0.019712841 0.0005651038
000110 bf aa 38 3d 0e e5 0e 3d 62 58 89 3c 34 44 91 bc
       0.04508471 0.034886412 0.016765777 -0.017732717
000120 4f 4e 2e 3d 20 27 a1 bc fb 17 2d bd 08 be 9c 3c
       0.04255515 -0.019671977 -0.042259198 0.019133583
000130 c9 8b a3 3c 25 1d 46 bd 41 c9 f6 3c d0 54 01 3b
       0.019964116 -0.04836764 0.030125262 0.001973439
000140 0f 23 b3 3d 52 ad 49 3d 9d 19 1c 3d f0 38 0f bc
       0.08746921 0.049237557 0.038110364 -0.008741602
000150 39 6e 6c 3c d8 40 44 3d c4 49 86 3c 3b 53 b7 bc
       0.014430576 0.047913402 0.016392596 -0.022378555
000160 68 f6 7e bc 9e 46 99 ba 79 9f 4b bd c4 33 56 bd
       -0.0155616775 -0.0011694019 -0.04971263 -0.05229546
000170 5c 78 1c bd fb ab 8a bd a4 d7 b1 bc 89 bd b5 3c
       -0.03820072 -0.06771084 -0.02170927 0.022185104
000180 f7 20 d8 bb aa b1 fb bc d2 a8 94 bd 58 84 02 3d
       -0.0065957266 -0.030724365 -0.072587624 0.031864494
000190 1e a5 28 bc 5b e7 a7 bc 68 4a a4 bb 52 38 30 bd
       -0.010293273 -0.020496061 -0.0050137527 -0.04302246
0001a0 fa 56 76 3d aa 7f c3 3c 53 3d 86 bd 97 3d 62 3d
       0.06014154 0.023864586 -0.065546654 0.055234518
0001b0 8a 3f a9 3d 2a 80 37 bb f4 e9 9e bd 3b 73 f6 bd
       0.08264072 -0.0027999976 -0.07759467 -0.12033697
0001c0 34 73 d4 3a 7d 7d 0c 3d ae f4 57 3d de fc f8 3c
       0.001620865 0.034299362 0.05272358 0.030394014
0001d0 8a 1d 02 bd c8 de 47 bd 5f 98 26 bd 59 94 46 bd
       -0.031766452 -0.048796445 -0.040672656 -0.04848132
0001e0 b5 50 96 3c 1f 83 37 3d 21 77 75 3c 8d 46 f1 3c
       0.018349031 0.04480278 0.014982016 0.029452587
0001f0 3e 57 e3 ba 5c 42 1c bd 3d 52 ff bc df 43 66 bd
       -0.0017344726 -0.038149223 -0.031167144 -0.05621707
000200 50 26 88 3d 88 4d b1 3d 7e 6b fe bc 44 4e fa 3b
       0.066479325 0.08657366 -0.031057116 0.0076387245
000210 5f c6 a4 bc 06 44 9f bc c9 ce 07 bd da 2a 6f 3d
       -0.020114122 -0.019441616 -0.03315619 0.058390476
000220 2a 86 08 3d 96 56 24 bd 95 dd 75 3d 1e f8 92 bd
       0.033331074 -0.040121637 0.06002577 -0.07176231
000230 49 ab 4d bd 1f 91 99 bd ac 1e 8d bc 75 d6 ef bb
       -0.05021218 -0.07498383 -0.01722654 -0.0073192664
000240 c9 30 04 bc ae 69 fd bc 52 43 6f bd f7 9b 63 3d
       -0.008068272 -0.030934181 -0.05841381 0.05556866
000250 3e b4 b1 3d 1c b6 26 3d 40 f1 d2 bc 5b a0 1e bd
       0.086769566 0.040701017 -0.025749803 -0.038727146
000260 a1 9e e5 3b f4 05 a0 bc e9 13 a1 bc 6e 58 c1 3d
       0.0070074354 -0.019534089 -0.019662814 0.09440695
000270 72 c1 13 3e ff e2 22 3d 69 1d d7 bc 41 1d 20 3d
       0.14429262 0.03976726 -0.026259141 0.0390904
000280 9c f3 82 3d 12 74 08 3d 8d b8 63 bc 57 8e b9 bd
       0.06394121 0.03331382 -0.013898981 -0.09060352
000290 ab 32 ac 3d 8c 73 70 3c 9b 18 03 bd 6e 9c 8b 3c
       0.08408102 0.014675986 -0.032005887 0.017042365
0002a0 1c fa 51 3d aa 97 5a bd 49 52 1c 3d 5c 9b 19 bd
       0.051263914 -0.053367294 0.03816441 -0.037501678
0002b0 47 f4 62 3d dc f4 65 bd 5d f0 9a bc aa 4f fc bc
       0.055408742 -0.05614172 -0.018913442 -0.030799706
0002c0 5f 9d 96 bd 3c a3 5a 3c 26 b2 9b bd 2e 7b 09 bc
       -0.07354235 0.013344582 -0.076023385 -0.008391185
0002d0 8f b6 4f bd 90 bd c1 3d c4 ca 0a 3d 5f 6b 3d 3d
       -0.05071121 0.09459984 0.03388478 0.046244975
0002e0 c7 1d 72 bc 0f 46 46 3d 75 e7 65 bc 48 1b 7e bc
       -0.014777607 0.048406657 -0.014032234 -0.015509434
0002f0 14 47 5e 3b ad ad 03 3e 64 fd 00 bc 7f e5 c4 bd
       0.0033916878 0.12859221 -0.007872913 -0.096140854
000300 44 15 2c 3a 76 32 b5 3c fa 45 bf 3c d6 e7 98 bc
       0.0006564448 0.022118788 0.023348797 -0.018665235
000310 fc a2 68 3d 8b 82 1c bd e3 ab ed 3c 89 f2 7f 3d
       0.05679606 -0.038210433 0.029012626 0.06248716
000320 4a 43 0d 3d a5 63 c2 bd c6 92 ba 3c 19 fa 25 3c
       0.034488 -0.09491662 0.022775065 0.010130429
000330 3b 1c 14 bd ae d5 09 be 9e 12 7d bc 12 e9 cb bc
       -0.036159735 -0.13460419 -0.015446333 -0.02489141
000340 d9 2c b1 bc 17 38 8d bd a0 31 2f 3c 34 e0 03 be
       -0.02162783 -0.06895464 0.010692984 -0.12878495
000350 14 e1 b7 3d f5 dc 40 3d 7a 39 d4 bc e1 45 ee bc
       0.08978477 0.04708572 -0.025906313 -0.029086055
000360 1b 5f f3 3d 35 36 40 3c b5 9a 9e 3c ea c4 c7 3d
       0.11883374 0.011731674 0.01936088 0.09754355
000370 a1 ea 88 3d f0 11 56 bd 19 39 f4 bd 65 29 ec bd
       0.06685377 -0.0522632 -0.11924953 -0.11531333
000380 55 2a 1a 3d 06 10 d1 bc ad 00 73 3d de fe 61 bd
       0.037638027 -0.025520336 0.059326816 -0.0551747
000390 e5 91 cd bc 54 a5 eb bc 1b 77 64 3d 20 79 ea bb
       -0.025093982 -0.028765358 0.05577765 -0.0071555525
0003a0 10 b5 47 bd 19 0a 5f 3d f4 d0 b0 3c 68 d9 bf 3c
       -0.04875666 0.05445299 0.021584012 0.023419097
0003b0 6b 07 d2 bd b4 0f 94 bd 46 9d ad 3d d8 62 2b bd
       -0.10255321 -0.07229558 0.08477263 -0.04184231
0003c0 30 5a 21 3d 9c 3e 6d bd 2c 3b e6 bb 4c 9d 35 bd
       0.03939265 -0.057921037 -0.007026097 -0.044339463
0003d0 f9 87 25 bd 36 c6 01 bd 02 e0 69 bb 98 2f a3 3d
       -0.040412877 -0.03168317 -0.0035686498 0.07968062
0003e0 2e 22 1e 3d 20 43 e3 bc 02 99 05 3d 88 37 5a bc
       0.038606815 -0.027741969 0.032616623 -0.013318904
0003f0 11 22 83 3d bf d9 e3 3b 26 de 77 bd 27 1a ab 3c
       0.06402982 0.0069534476 -0.06051459 0.020886494

bias f4 [50]
000000 3e d0 ca 3d 46 41 75 3d 49 2f e8 3d 07 69 f7 3c
       0.09903 0.059876703 0.11337144 0.030201448
000010 5e e5 c0 3d c2 f9 5f 3d 02 21 bc 3d 2f e2 d1 3c
       0.09418748 0.054681547 0.09185983 0.025620548
000020 1c f5 08 3b a3 10 a4 3c ec e5 5e 3d 62 eb b0 bc
       0.002089805 0.020027464 0.05441849 -0.021596614
000030 ab 63 81 3d 5e 01 95 3c 0e b4 3c 3d 3a 24 11 3d
       0.06317838 0.018189128 0.04607015 0.03543494
000040 b6 9a 08 3d a1 74 90 3d e6 28 88 3d 74 5c 50 3d
       0.03335067 0.07053495 0.06648426 0.05086942
000050 91 f1 cb 3d b0 dd cb 3b 68 61 4a 3d 40 5f b9 3d
       0.099581845 0.0062214956 0.0494093 0.090513706
000060 14 cd a0 3d f4 92 87 3d d4 a8 5c 3d 39 e8 24 3d
       0.078516155 0.06619826 0.053871945 0.040260527
000070 aa 63 cf 3d 8f ee ab 3d 49 52 9b 3c da 15 cc bc
       0.10126431 0.08395111 0.018960135 -0.024912763
000080 41 c6 e2 3d a0 36 f0 3d 9d 5d 0d bd a8 13 8a bd
       0.1107297 0.11729169 -0.034513105 -0.067420304
000090 16 29 02 3e 60 03 85 3d be b1 9a 3d 37 9e d3 3d
       0.12710986 0.06494784 0.07553433 0.103329115
0000a0 63 f9 5b 3d 0e 59 11 3d eb 90 f4 3c 23 1d df bc
       0.05370463 0.03548532 0.029854259 -0.027235573
0000b0 f2 f4 b1 3d a7 c8 d0 3d c6 b0 92 3d 4f ce b6 3d
       0.08689298 0.101945214 0.07162623 0.08926069
0000c0 d0 b7 eb 3d b1 26 85 3d
       0.11509669 0.065015204

weight f4 [10, 50]
000000 b8 63 e1 3d 5f f5 b9 3d 3e 74 83 bd 24 2a 24 3d
       0.11005348 0.09080004 -0.06418656 0.04007925
000010 30 bb cb 3b ea 4c 83 bd e2 b4 3f be d9 7d a8 3c
       0.006217383 -0.064111546 -0.18721345 0.020567821
000020 45 fd 42 be 3d 66 af 3d d3 db 87 bc 0a 3e 16 3e
       -0.19041927 0.08564422 -0.016584313 0.14672104
000030 30 db 49 be 1b a1 d2 3d 98 7c 3d 3e dc 5c 5a 3d
       -0.1971252 0.10284635 0.1850456 0.053311214
000040 37 ff 0f 3e 4a 71 88 3c e5 2e ab 3c 8d 2c aa 3d
       0.140622 0.016655583 0.020896384 0.08309279
000050 ad 5a 59 be 4a 48 d0 bc 07 33 1b be 64 8a 66 bd
       -0.21225996 -0.025425095 -0.15156184 -0.056284323
000060 90 eb 2b be 9d 86 9b bd 74 d1 4f 3d e8 b9 09 bd
       -0.16789079 -0.07594035 0.05073686 -0.03362456
000070 ca fd be 3d 22 8b ae 3b 61 13 4e be 17 c2 16 3d
       0.0932575 0.0053266445 -0.2012458 0.036806192
000080 cd 49 5a 3c 41 50 14 3e b2 c0 97 bc b9 01 a8 bd
       0.01332326 0.1448374 -0.018524501 -0.082034536
000090 80 77 c0 bd 01 ba 21 be 41 26 2e 3e 46 05 7c be
       -0.09397793 -0.15793611 0.1700678 -0.24611387
0000a0 18 d3 2d be 57 07 ad bd 58 10 0a be 15 95 2d 3e
       -0.16975057 -0.084486656 -0.13482797 0.16951402
0000b0 4a be 2e 3e dd 3c 52 bd a7 0c 0f 3e 81 c5 a1 3c
       0.17064777 -0.051327575 0.1396967 0.019747498
0000c0 a5 ef e4 bd fd 34 9a bd a8 7b 0f be 8e 9f c7 bd
       -0.11178521 -0.07529638 -0.14012015 -0.097472295
0000d0 19 00 01 3d f9 dc 05 3e 31 e1 29 3d 79 69 db bd
       0.031494234 0.13072576 0.041474525 -0.10713477
0000e0 b0 f6 70 bd 9d 57 0b be b5 9d 23 3e 45 30 aa 3d
       -0.05882901 -0.1360764 0.15978129 0.08309988
0000f0 b7 e1 50 bd 6b df 0f 3e 7a 3a 30 3c fe 3d b8 3b
       -0.05099651 0.14050071 0.010756129 0.0056226244
000100 b6 d5 cf bc cf 23 25 be 10 6f fa 3d d6 7e c9 3d
       -0.02537046 -0.16126941 0.12228215 0.09838645
000110 42 9a 49 3d 58 b5 30 be ad fe bb 3d e7 dd a1 3c
       0.049219377 -0.17256677 0.09179435 0.019759132
000120 f6 6d bc 3d 8c 8e c6 3d 41 04 35 be e3 12 95 bd
       0.09200661 0.096951574 -0.17677404 -0.07278993
000130 4f d0 81 3d 61 f0 2e 3e 94 c2 ba bd 81 1c d6 bd
       0.0633856 0.17083885 -0.09119144 -0.104546554
000140 ba fc ae 3d 4f 50 2e 3e e3 12 fb 3b 39 49 01 be
       0.085442975 0.17022823 0.0076621636 -0.12625588
000150 60 57 23 be 12 23 d8 3d 2e 82 a2 3c fa 35 96 bd
       -0.159513 0.10553564 0.019837465 -0.07334514
000160 e3 e6 50 be c3 85 39 be 8b 15 24 be a1 42 01 3e
       -0.20400576 -0.18117432 -0.16023843 0.12623073
000170 35 d4 7c bd 4e c8 67 3d d7 e6 5f bd c7 7e 00 be
       -0.061725814 0.05658751 -0.054663505 -0.12548362
000180 db 1b 80 bd 8d f2 28 be e8 6f 8a be 67 08 7f be
       -0.06255313 -0.16498776 -0.27038503 -0.24905549
000190 98 3c 08 bd 93 7c 8b be e6 a9 3d be 21 22 53 be
       -0.03326091 -0.2724348 -0.18521842 -0.20618488
0001a0 e1 69 0e 3e 93 88 16 3e 37 ab 08 3e 3f 8e 81 3c
       0.13907577 0.14700536 0.13346563 0.015814899
0001b0 ea d5 39 bd 97 64 d5 bd cf 7b 8d 3e 94 79 07 be
       -0.04537002 -0.104195766 0.2763352 -0.13229972
0001c0 41 15 2b bd 22 f5 df bd fa be a1 bd 0c 36 a0 bd
       -0.041768316 -0.10935427 -0.07897754 -0.078228086
0001d0 10 fe 01 be 5d 62 a9 bd 30 83 35 3e d5 d6 0b be
       -0.12694573 -0.082707144 0.17725825 -0.1365617
0001e0 30 99 da 3d 9f 89 87 3d 33 20 d2 3d ad 36 ab bd
       0.106737494 0.06618046 0.10260048 -0.08360038
0001f0 cc cf 4e bd 1b d2 14 3e ce a2 16 be 94 9d ec bc
       -0.05049114 0.14533274 -0.14710543 -0.028883733
000200 b8 b6 83 bd 6d 1b 9c bd e9 5f 2e 3d 44 1c 2c be
       -0.06431335 -0.076224186 0.042571936 -0.16807657
000210 ed ff 3e be d9 45 48 be 36 f3 4e 3e c6 cb 17 be
       -0.18652315 -0.19557895 0.20209965 -0.14823827
000220 76 53 53 39 80 00 6a be 76 20 36 bd b4 ad eb 3d
       0.0002015362 -0.22851753 -0.04446455 0.115077406
000230 d0 b4 d2 3d c2 26 93 3d 68 68 36 3d 4f a2 ad 3d
       0.102883935 0.07185127 0.044533163 0.084782235
000240 1d 1c 3c bd f4 f5 04 3e a1 1d de 3d 45 71 db bd
       -0.04592525 0.12984449 0.10845495 -0.10714964
000250 b9 b1 0a 3e 1a 9f 3f 3e 89 e8 8b bd e6 9e ef 3d
       0.13544358 0.18713036 -0.06831462 0.11700229
000260 ca 7c 2b be 23 c3 b9 3c de 52 9a 3c 82 08 01 3e
       -0.16746822 0.022676056 0.018838342 0.12600902
000270 01 47 de bc 19 fd e1 3d 02 37 ab 3d 18 42 ac 3d
       -0.027133467 0.11034603 0.08360101 0.08411044
000280 17 76 d9 bd 07 16 f6 3d 7a e5 bb bd d2 58 55 be
       -0.10618227 0.1201592 -0.091746286 -0.20834664
000290 0d 0f 23 be a3 c6 15 be fb 19 07 3d 86 df db bd
       -0.1592371 -0.14626555 0.03298376 -0.10735993
0002a0 b9 f0 30 be a0 8c 03 be fb 0a d7 bc aa b5 02 be
       -0.17279328 -0.12846613 -0.026250353 -0.12764612
0002b0 2c 20 bc 3c 32 62 45 be de 93 92 bd ac ce 9a 3d
       0.02296456 -0.1927574 -0.0715711 0.07558951
0002c0 31 2b 21 be 2c 0f 0e 3e 4f d0 33 3e 55 bd 75 3d
       -0.15739132 0.13872975 0.17559932 0.059995014
0002d0 81 6a 0e 3e 42 04 2a 3e f1 a1 0b 3e 64 fb ec bd
       0.13907816 0.16603187 0.13635994 -0.115713865
0002e0 85 90 d8 bd 7f 2c d1 bd 78 77 c1 bd 89 1f 8c 3d
       -0.1057444 -0.10213565 -0.09446615 0.06841952
0002f0 9b b2 56 be 68 4e 07 be 10 fe 08 be e1 45 fb 3d
       -0.2096657 -0.13213503 -0.13378167 0.12269188
000300 56 57 85 3d ef 17 ea bc 64 b6 d6 bc 8d 43 45 3e
       0.06510799 -0.028575866 -0.026210018 0.1926405
000310 c3 03 04 3e a1 46 6e bd c3 75 ce 3d cd af 14 3e
       0.1289206 -0.058172826 0.10081055 0.14520188
000320 b8 c5 df 3d 5d c2 1f be 99 24 4c 3c 33 3d 4b be
       0.10926384 -0.15601487 0.012459897 -0.19847564
000330 dd 6a 99 bd 43 e2 b2 bd b2 7e 06 3e 8b 72 5a be
       -0.07491086 -0.08734562 0.13134268 -0.21332757
000340 bc 5a d8 bd 10 25 36 be e0 b2 16 3d 05 92 21 be
       -0.10564181 -0.17787576 0.036791682 -0.15778358
000350 ad 36 92 3d 8b 65 89 3d a2 e2 de 3d 96 ea 35 be
       0.07139335 0.06708821 0.108830705 -0.17765269
000360 a2 58 05 be 40 50 43 3d 89 1b 27 3e cc 0e 8e be
       -0.13022092 0.047683954 0.16319098 -0.27745664
000370 07 0c af 3d 29 f5 2d 3e c9 63 7c 3d 94 cc d3 3d
       0.08547216 0.16988052 0.0616186 0.103417546
000380 1f ae 59 bd 02 7a 4e bd a1 b8 2c 3d 06 1f f9 bd
       -0.05314457 -0.050409324 0.042168263 -0.121641204
000390 38 cb ae bd f3 b4 ff bd 67 23 d7 3d 72 22 56 3b
       -0.08534855 -0.12485685 0.10504799 0.003267434
0003a0 5d da 62 be 8a ff 17 be 66 c1 3f 3e b3 1f af 3d
       -0.22153611 -0.14843574 0.1872612 0.08550968
0003b0 ae 4e 15 3e 36 f7 4a be 82 00 e3 bd aa 62 07 3e
       0.14580795 -0.19820866 -0.11084081 0.13221231
0003c0 ea e8 b4 bd ef e4 f3 3d 12 14 da bd 4a f9 21 bd
       -0.08833487 0.119089 -0.10648359 -0.03954438
0003d0 58 7d 2b be a4 93 d5 bd 98 11 b0 3c e7 00 9d bd
       -0.16747034 -0.10428551 0.021492764 -0.07666188
0003e0 92 a9 db bd f1 2a d2 bd 88 0e e9 3d 71 45 23 bd
       -0.10725702 -0.10262097 0.11379725 -0.039861146
0003f0 82 04 85 3d 75 67 c7 bd 3e 97 a7 3d 61 29 36 3c
       0.064950004 -0.0973653 0.08183144 0.011118264

bias f4 [10]
000000 b5 a3 e7 bd 52 98 b0 bd 9b 20 39 be 3a 20 d5 bd
       -0.113105215 -0.08622803 -0.18078844 -0.10406537
000010 37 10 e2 3d 65 a9 a1 3d 27 6e d8 bc 76 e6 91 3d
       0.11038249 0.078936376 -0.026419712 0.07124035
000020 9d ed eb 3d 22 00 62 bd
       0.115199305 -0.055175908
